5G_report/rnn_model.pth (torch, 7004 bytes, 6 tensors)

rnn.weight_ih_l0 f4 [16, 49]
000000 0d 6e 50 3e ec 21 2e 3e 49 ba b0 3d 33 eb a3 3e
       0.20354481 0.17005128 0.08629281 0.3201538
000010 40 17 05 3e 2f fc 5a 3c cb 85 56 be e7 44 e6 3d
       0.1299715 0.013365789 -0.20949475 0.11243611
000020 74 7e 9e 3e 09 fd 4e 3e b3 09 70 be 0a 5f 2c be
       0.3095585 0.20213713 -0.234412 -0.1683313
000030 95 e8 02 be eb 33 d1 3d 63 42 00 be 50 94 1a 3e
       -0.12784036 0.10214981 -0.12525325 0.15095639
000040 e4 89 84 3e 1c ad 44 3e 8c 7c 73 be 33 80 3d be
       0.25886452 0.19206661 -0.2377798 -0.18505935
000050 49 e4 bd bd 65 a9 9c bd 72 97 2d be ff 2f fc 3d
       -0.092720576 -0.07649497 -0.16952303 0.12313842
000060 86 25 4c be 43 ff 87 bc 76 2c 39 3e 8b 42 f0 3d
       -0.19936189 -0.01660121 0.18083367 0.11731442
000070 07 8f 7c be d6 72 d3 3d 3b 02 3b be 27 6d cd 3d
       -0.24663936 0.103246376 -0.1826257 0.10030585
000080 90 8f a9 3e 2e a1 28 bd ac 50 40 be f2 ce 2a 3e
       0.33117342 -0.041169338 -0.18780774 0.16680506
000090 d1 ae c2 bd 30 5f 57 3e 50 34 d5 bd 72 62 b9 3e
       -0.09506 0.21032405 -0.104103684 0.3620792
0000a0 4b bd 68 3d 57 16 ed 3c 70 a8 4b 3c cf 6d d7 bd
       0.05682115 0.028941317 0.012430295 -0.10518991
0000b0 2a f8 8b 3d fe f6 4a be c6 54 5c 3c e1 c1 2a 3d
       0.06834443 -0.19820783 0.013447946 0.041688804
0000c0 62 68 78 3d 29 9d c6 3e a4 07 48 3c ae 5d 34 be
       0.060646422 0.3879178 0.012208853 -0.17613861
0000d0 da 96 3b 3e 3c 1b b9 3d 39 b9 88 3e 6b 27 14 3e
       0.18319264 0.09038398 0.26703814 0.14468162
0000e0 9b a7 49 3d b2 bd 1b 3e 77 cf 85 3e 77 99 20 3e
       0.049232107 0.15209082 0.26134846 0.15683542
0000f0 d1 af a9 3d fe 4b 3a 3e c0 c3 21 3d 8c 97 91 bd
       0.082854874 0.18193051 0.039493322 -0.071089834
000100 b8 84 0b 3e be 17 cd bd 7a 87 2d bd 58 fe 3f bc
       0.13624847 -0.10014294 -0.04236553 -0.011718355
000110 78 29 c1 3d 1b ba 6c be 14 4c 0a bc 1a 83 c6 bd
       0.09431738 -0.23117869 -0.00844099 -0.096929744
000120 4e 63 25 3e a4 e8 a8 be 5a 45 0d be f3 4d ad be
       0.16151163 -0.3298999 -0.13795987 -0.33848533
000130 49 ab 94 bd 25 c2 3b 3e ba d9 8a bd 3b 89 f2 3d
       -0.072592326 0.18335779 -0.06779809 0.11842581
000140 52 5a a8 be 8e d0 87 be 88 bd 34 bc c4 4f 28 be
       -0.3288141 -0.26526302 -0.011031516 -0.16436678
000150 20 4d 81 be 58 78 19 3d 4d d4 9e bd 9a 17 cd 3d
       -0.25254154 0.037468284 -0.07755337 0.10014267
000160 5c 95 bc 3d 45 d4 84 bd f2 a3 58 3e 7d 93 59 bd
       0.092081755 -0.064858 0.2115629 -0.05311917
000170 ba ae cb bb 44 fe 8b be f3 a7 ce bd 7b 54 d0 bd
       -0.0062158974 -0.27342427 -0.100906275 -0.10172363
000180 f1 7b c4 bd 3d ef d2 3d b9 0e 30 3e 9d 35 fe 3d
       -0.095939524 0.10299537 0.17193116 0.1241257
000190 b7 37 30 be af 18 92 be 1c 86 06 be 0c 67 9b bd
       -0.17208754 -0.28534457 -0.13137096 -0.07588014
0001a0 7c ad 59 bd b7 ef a6 3d 8a 4c 1d 3d a8 98 7d be
       -0.053143963 0.08151191 0.03840307 -0.24765265
0001b0 a1 09 a1 3d ee ea 9b 3e b6 95 06 3e 03 c5 d2 3c
       0.07863165 0.30452675 0.13143048 0.025728708
0001c0 ff af a6 bd 85 36 3b 3d cd ba 15 3e 42 13 a5 be
       -0.08139037 0.04570629 0.1462204 -0.32241255
0001d0 10 59 56 3e 95 13 4e 3e 08 08 2e bd d4 ca e6 3d
       0.20932412 0.20124657 -0.042488128 0.11269155
0001e0 34 28 87 bc a8 87 b5 3c 52 1e 06 3e 35 71 3f be
       -0.016498663 0.022159413 0.13097504 -0.18695529
0001f0 53 71 26 be b8 83 24 bc 52 d9 9c be 98 9e 3f be
       -0.16254167 -0.01004117 -0.30634552 -0.18712842
000200 6d 9b a2 3d 5a 0f 8c 3d cd a9 dd 3d 77 4c a2 bd
       0.07939801 0.068388656 0.108234026 -0.07924741
000210 9f 1a 92 bd 6e 85 db 3d be 6d 88 be 08 4e 39 3d
       -0.07133984 0.10718809 -0.26646227 0.045240432
000220 9c b2 39 3d ea db 4f 3d 38 cd 4d bc 0d da 8a 3c
       0.04533635 0.050746836 -0.012561135 0.016949678
000230 d0 2a cf bc 90 16 4f be 05 7d 6b 3e ae 27 1d 3d
       -0.02528897 -0.2022345 0.2299691 0.03836792
000240 cd d9 03 be 6e ff 06 3c 46 93 92 bd 73 f4 b5 bd
       -0.12876053 0.00823961 -0.071569964 -0.088845156
000250 59 e0 11 3e 3d 50 f4 3d 5a 00 53 be 57 5c 90 be
       0.14245738 0.11929367 -0.20605603 -0.2819545
000260 bf e7 5a 3d 27 a7 93 3e c7 d3 71 be 8e f7 0c 3e
       0.053443667 0.28838465 -0.23615943 0.1376631
000270 ff 9a c2 3d c7 75 25 be 53 1a 51 3e 1c f4 83 3e
       0.095022194 -0.1615821 0.20420198 0.25772178
000280 be b0 f6 3c 1b 22 88 3e 9e 5a dd bd 4d cb d4 3d
       0.030113574 0.2658852 -0.108082995 0.10390339
000290 6a 0b eb bd 07 f1 66 3e 64 45 09 3e eb 8a 83 bd
       -0.114767864 0.22552882 0.13405377 -0.06422981
0002a0 93 f3 c1 bd ea 2d 3c 3e c4 83 e5 bd e4 d4 cb bd
       -0.09470286 0.1837689 -0.11206773 -0.09952715
0002b0 f3 a9 77 bc 22 6e e4 3d ad bc 9f 3c 8f b5 46 3e
       -0.015116203 0.11153819 0.019499147 0.19405197
0002c0 cb 3f 14 be 05 6f ef bc e9 ac 50 3c b5 46 b6 be
       -0.1447746 -0.029227743 0.0127365375 -0.3560082
0002d0 ac 20 0e 3e 81 7e 83 bd 72 2b f2 bd e3 d2 56 be
       0.13879651 -0.06420613 -0.11824693 -0.20978884
0002e0 32 d8 ac be c7 f4 84 bb ac f7 89 be 2a 4b ef bd
       -0.33758694 -0.0040575 -0.2694677 -0.11684258
0002f0 8e 26 e3 bd c5 a7 d2 bd 06 d8 97 bd 55 02 3b be
       -0.11091338 -0.10285906 -0.0741425 -0.18262608
000300 90 96 13 be 26 18 71 be d3 96 25 be 00 63 9d 3e
       -0.14412904 -0.23544368 -0.16170816 0.30739594
000310 ea 8f bd 3d 6d f9 11 3e 70 a5 90 3d c9 e8 aa be
       0.09255965 0.14255305 0.07062805 -0.33380726
000320 27 e0 8e be 19 5b 54 be 04 db 1c bd b1 d4 5b 3d
       -0.2790539 -0.20737876 -0.038294807 0.053669635
000330 c6 6d 42 be 29 f8 3c be 1a ee 85 3e fd dd 25 3d
       -0.18987188 -0.1845404 0.2615822 0.040494908
000340 6c 2a b3 3c a1 7a f3 bd 0d 4d 9f 3e d0 17 78 bd
       0.021870814 -0.11888624 0.31113473 -0.060569584
000350 02 ee 59 be 63 c8 b2 bd 1c ac 35 3e c2 db ba 3e
       -0.21282199 -0.08729627 0.17741436 0.36495787
000360 e9 43 40 3c 61 aa d0 bd 94 85 ab 3e c4 12 94 be
       0.011734941 -0.10188747 0.3350035 -0.28920567
000370 0b 18 1b 3e 00 94 a4 be 9b ba ba bd ba ef dd bc
       0.1514589 -0.32144165 -0.091176234 -0.02709185
000380 01 8e 9f 3d a6 a8 6c be 80 69 9a 3d ea dc 70 be
       0.07790757 -0.2311121 0.07539654 -0.23521772
000390 bc 52 be bc 8a 59 ce bd da 5d 2c 3d a8 c0 cd 3d
       -0.02323281 -0.10075672 0.04208169 0.10046512
0003a0 36 43 27 bd 10 a9 89 be 9f e6 4a 3c 3d a5 e6 bd
       -0.04083558 -0.26886797 0.012384086 -0.112619855
0003b0 4c 0e d3 bd 02 20 a8 be ce 05 4e 3e 43 7d b5 bc
       -0.10305461 -0.3283692 0.20119402 -0.022154456
0003c0 ab 36 54 be 8a 38 4c be 39 97 d9 bd b5 91 ab be
       -0.20723979 -0.19943443 -0.106245466 -0.33509603
0003d0 e8 d3 b3 3d 03 e2 42 3e 1e 68 b8 3e 06 aa f4 bc
       0.08780652 0.19031529 0.36016935 -0.02986623
0003e0 04 5b fa 3d ec 5e a7 bd 8f 8c 03 3e 06 15 83 3c
       0.12224391 -0.08172402 0.12846588 0.016001236
0003f0 03 a0 a9 be 66 07 48 bc 2d 3c e2 3d 43 14 00 3e
       -0.33129892 -0.012208795 0.11046634 0.12507729

rnn.weight_hh_l0 f4 [16, 16]
000000 0b 59 7d be fa 97 87 bc 76 2c 20 3e 28 94 08 3d
       -0.24740998 -0.01655196 0.1564196 0.033344418
000010 30 1f 40 3e 3a a8 8e 3d e8 ad 08 be ea 67 e3 3d
       0.18761897 0.069656804 -0.1334759 0.111038044
000020 78 7a 05 3d 7a 11 70 bd 0d 15 98 bd 45 bd 53 be
       0.0325875 -0.058610417 -0.0742589 -0.2067767
000030 31 60 1d bc 2d 1d 8b 3d 73 33 5c 3d fa 74 53 3e
       -0.009605453 0.06792674 0.053760003 0.20650092
000040 f6 7a a8 3d 04 f8 ab bc 71 8e a4 3e 6a 55 67 3c
       0.08226578 -0.020992287 0.32139924 0.014119485
000050 74 39 80 3e 76 66 f3 3d 09 46 b0 3e e9 b9 90 3d
       0.25043833 0.11884777 0.34428433 0.070667095
000060 7b a2 60 3e 0d 3d 4d bd 21 46 a9 bd 96 16 e1 bd
       0.21936981 -0.05010705 -0.08265329 -0.10990636
000070 ee eb 18 3e 54 07 f6 bd 8c a2 bb bd 6f c3 8b be
       0.1493375 -0.120131165 -0.09161863 -0.27297541
000080 53 f5 35 be 02 f9 a9 bd df 30 8d be 76 bb 91 3e
       -0.17769365 -0.082994476 -0.27576348 0.28463334
000090 94 ee ee 3c 27 8d ce bd bc 41 39 be 3e 09 dd 3d
       0.029166497 -0.100855164 -0.18091482 0.107927784
0000a0 39 51 0d 3e 5e 74 c1 3b 11 29 af be a6 1b ad be
       0.13800515 0.0059037646 -0.3421102 -0.33810157
0000b0 99 96 09 be 11 18 8e be 2e 5a 8f bc c2 59 0b 3d
       -0.13436355 -0.27752736 -0.017499056 0.034021147
0000c0 d1 e9 f8 3d 37 83 8f 3e 70 48 56 bd 37 6e 2a be
       0.12153972 0.28029796 -0.052315176 -0.16643606
0000d0 e7 e2 c9 3d f0 be 91 3e da ef 05 be 4e 1e b6 3d
       0.09857731 0.28465986 -0.13079777 0.08892499
0000e0 c0 ae 66 3e 37 96 19 be a3 1c 2f be 57 87 df 3d
       0.225276 -0.14998709 -0.17100768 0.10914486
0000f0 be 67 46 bc c8 b7 65 3b 46 9b 5c 3d 05 5d e4 3d
       -0.012109695 0.003505217 0.053859018 0.111505546
000100 5e 56 0a 3d c1 0d 3e 3e a1 f0 3a bc 8f 12 32 3e
       0.033773772 0.18559934 -0.011409909 0.17389892
000110 3b 63 26 3e 20 84 53 3e df 27 6f 3e 67 9b e8 3d
       0.16248791 0.2065587 0.23355053 0.11357766
000120 19 b0 82 3d 8b 30 d3 bd 74 c6 0e 3d 23 75 81 3e
       0.06381244 -0.10311993 0.03485723 0.2528468
000130 cc 09 51 be 54 dd 93 be 1c 20 26 bd 5d 40 90 3d
       -0.20413893 -0.28879797 -0.040557966 0.07043526
000140 4b 82 12 3e bb 6d 3a 3e 58 2f 7c 3e 56 fd fd bd
       0.14307515 0.18205921 0.24627435 -0.124018356
000150 be 30 b1 bd 05 b5 22 be 04 89 f8 3d 42 c3 93 3e
       -0.08651875 -0.15889366 0.12135509 0.28859907
000160 42 23 3b 3e 3c cd a3 be b6 e3 90 be da 11 1f be
       0.18275169 -0.3199252 -0.2829873 -0.15534154
000170 42 fe 7c 3e 0f ab c2 3c 3c 4e 52 3e ff 14 48 be
       0.24706367 0.023763208 0.20537657 -0.1953926
000180 6c cf 2d bd 11 2e 8d 3e 95 98 46 be aa 7b 3a bd
       -0.04243414 0.27574208 -0.19394143 -0.04552809
000190 2b dc 12 3e 5a 01 e4 bd 25 e3 9b be 2e 6d 86 be
       0.143418 -0.1113307 -0.30446735 -0.26255172
0001a0 29 98 39 be 6a fe 1e be ef d9 3a 3c 06 3c 84 3c
       -0.1812445 -0.15526739 0.0114044985 0.016141903
0001b0 37 12 71 be 15 6e 81 be c2 24 14 be 60 33 3c 3e
       -0.23542105 -0.25279298 -0.14467147 0.18378973
0001c0 14 db 81 be f4 ad 90 3e e6 08 54 bd 30 a3 66 3d
       -0.25362456 0.28257716 -0.0517663 0.05630797
0001d0 b3 6c 54 3e 32 9b cf 3d 19 d9 12 be ed cd 29 bd
       0.2074459 0.10137023 -0.14340629 -0.04145615
0001e0 d0 55 53 3d 37 20 0b 3e 97 a6 70 be e7 14 a4 bd
       0.05159551 0.13586508 -0.23501049 -0.08011799
0001f0 b7 e2 8d 3d b7 fc 25 be 35 f1 0f be dc cc b8 3d
       0.06928008 -0.16209684 -0.14056857 0.09023449
000200 aa 99 e4 bd aa 3f 7a 3e f9 3c 3f 3e 2f 0d 85 3d
       -0.111621216 0.24438348 0.18675603 0.06496655
000210 52 bf 9d 3d 68 5f d9 3d 5e b3 8a 3e 12 f1 14 bc
       0.07702507 0.106139004 0.2708997 -0.009090679
000220 2e 3f 44 3e 00 2f 51 be eb 1e 97 be 29 b5 0d be
       0.19164726 -0.20428085 -0.29515776 -0.13838638
000230 cc 38 4b 3e a9 e2 8c 3d 7b e4 70 3d f0 14 05 bd
       0.19845885 0.068791695 0.058811646 -0.03249067
000240 f9 05 b4 3d 27 78 ac be 55 cf e8 bd 48 65 f7 bd
       0.08790202 -0.3368542 -0.113676704 -0.12079865
000250 86 c5 6f 3e 33 1b a8 be 9d 04 b1 3d 65 6d b5 3d
       0.23415193 -0.3283325 0.08643458 0.08858756
000260 2d 23 6f be 73 f2 ba bd c2 d7 95 be a8 a9 ea bd
       -0.23353262 -0.09128275 -0.29266173 -0.114581406
000270 14 f4 ea bc 41 a4 87 3e c6 4b 04 be 81 18 3c 3d
       -0.028680839 0.26492503 -0.1291953 0.045921806
000280 ab a2 bf bb 57 58 79 3d 8d cd a4 be 48 51 08 be
       -0.005848249 0.060875263 -0.32188073 -0.13312256
000290 63 ec 5b be 40 e5 23 be 9c 39 6a be 5e 24 d6 bd
       -0.21476893 -0.1600542 -0.22873539 -0.10456155
0002a0 f1 de 02 3d 94 dd 24 3e 93 ea 21 3e 5f a9 18 3e
       0.031950895 0.1610015 0.15812139 0.1490836
0002b0 bf b8 2d be 2d b6 76 3e b4 1d 52 be a2 10 36 3e
       -0.16965006 0.24092932 -0.20519143 0.17779782
0002c0 ee 26 e1 3a f3 78 97 be f3 fa f6 bd cd 12 29 bd
       0.001717774 -0.29584464 -0.120595835 -0.041277695
0002d0 3c 3f 45 3b f6 bf 30 3c ec e2 ca 3d 0b ac 9c 3c
       0.0030097505 0.010787955 0.09906563 0.019125005
0002e0 ad f8 87 be 1e 92 96 3e c5 d2 88 3e 18 38 46 bd
       -0.26556912 0.29408354 0.26723304 -0.04839334
0002f0 ed f5 a9 be 71 c0 26 bd ac 60 a7 be 5f a9 60 3e
       -0.3319544 -0.04071087 -0.32690942 0.2193961
000300 ce d8 d7 3d 46 2a 17 3e a2 49 65 be eb d8 54 be
       0.10539399 0.1476222 -0.2239137 -0.20785873
000310 d1 f6 51 3e 55 d6 35 3e 85 f8 b4 3d fb bf b1 be
       0.20504309 0.17757542 0.08836464 -0.34716782
000320 5f 18 a0 3d 8e 9c 1a 3e 54 59 82 be 13 bd 65 3e
       0.078171484 0.15098783 -0.25458777 0.22435407
000330 9e e2 a8 be 74 93 59 be 41 f9 60 3e 37 0d 9d 3d
       -0.32985395 -0.21247655 0.21970083 0.07668536
000340 3b 69 2e 3e ed f7 c8 3d fe 31 70 be c3 a2 53 be
       0.1703233 0.09812913 -0.2345657 -0.20667557
000350 3c 14 71 3d ab 40 a1 be 75 c3 da bc c4 65 95 be
       0.058857188 -0.3149465 -0.02670453 -0.29179204
000360 11 59 5a be 0b 9d 2b 3d 22 79 61 3e 7d 4c 5f be
       -0.21323039 0.041897815 0.22018865 -0.21806522
000370 c3 e8 dd 3d 08 98 e1 bd 15 f7 08 be 58 f5 89 3e
       0.108354114 -0.11015326 -0.13375504 0.26944995
000380 ce 36 17 3e 4d 7a fc 3d 35 8a e0 3d cc 37 80 3e
       0.14767 0.123280145 0.10963861 0.2504257
000390 87 5b a9 3e 25 16 91 3e 18 7a 7e 3d 67 37 a9 3e
       0.33077642 0.28337207 0.062128156 0.3305008
0003a0 41 a4 5a 3e c2 1a db bd 76 59 1e be ca 90 96 be
       0.2135172 -0.10698463 -0.15463814 -0.2940734
0003b0 65 32 32 3d 40 87 1f be 83 f5 8f bd 83 e5 fc bd
       0.04350509 -0.15578938 -0.070292495 -0.123484634
0003c0 90 d5 44 3e 83 af 00 be 03 ca b0 bd ba b2 a2 bd
       0.19222093 -0.12566952 -0.08632281 -0.07944246
0003d0 75 e1 16 be 96 5e 5b be b0 43 8b be 66 9d 50 be
       -0.14734443 -0.214228 -0.2720008 -0.20372543
0003e0 ec 67 4f be 82 55 e3 3d 47 04 8b 3d 67 79 fa 3c
       -0.20254487 0.11100294 0.06787925 0.030575467
0003f0 b4 60 98 be f7 93 10 3e 99 f4 4a be eb cb e9 bd
       -0.2976128 0.14118944 -0.19819869 -0.114158474

rnn.bias_ih_l0 f4 [16]
000000 85 2d 61 bd ae c6 a7 3d 66 e1 15 bd f9 12 86 3c
       -0.05497505 0.08192192 -0.03659191 0.016366469
000010 8d 59 14 bc dc 39 20 bd f1 c7 23 3e 43 84 70 be
       -0.009054554 -0.03911768 0.1599424 -0.23487954
000020 2c 71 46 3c 8d c9 00 be 3c b2 e6 3d 96 bd 3b 3e
       0.012111943 -0.12576886 0.11264464 0.1833404
000030 94 1f f1 3d b6 f3 62 bd bb be 5a be 39 c1 a7 bc
       0.11773601 -0.055408202 -0.2136182 -0.020477878

rnn.bias_hh_l0 f4 [16]
000000 a9 46 57 bd f4 5b f9 3d 01 ba 2c 3c 3c 6f 19 be
       -0.05255762 0.12175742 0.010542394 -0.14983839
000010 11 54 75 bd e3 0a a0 bd 96 15 3c be 6f f0 41 3e
       -0.059894625 -0.078145765 -0.1836761 0.18939374
000020 4e b9 d9 bd 62 7a c6 bd 57 38 94 bc f0 58 68 3d
       -0.10631047 -0.096913114 -0.018093271 0.056725442
000030 84 0f e8 bd 6d f4 40 be 57 2f 15 be e9 26 91 3e
       -0.11331084 -0.18843241 -0.1456884 0.2835

fc.weight f4 [2, 16]
000000 5a 99 9a 3e 69 28 56 3d 41 c5 ec 3b 89 6d 5f be
       0.30195123 0.052284632 0.007225663 -0.21819128
000010 97 79 d5 bd 51 a8 de 3d 0d 89 8a be c0 a0 db 3d
       -0.10423582 0.108719476 -0.27057686 0.1072402
000020 0c aa 96 3e 6e 4d e0 3d 46 85 81 be 35 df 8c be
       0.2942661 0.109522685 -0.25296992 -0.27514043
000030 3d 87 81 be 4e c9 df 3c 2f 19 a9 3e 47 52 a3 be
       -0.2529849 0.02731767 0.33027026 -0.3189871
000040 4f e3 99 bc 32 bd 41 bd 33 7a a0 be e7 e7 34 bd
       -0.018785147 -0.04729957 -0.3134323 -0.04416647
000050 8d 9d 8e 3d f3 33 6e be 18 8e 89 3e dc f7 f4 bd
       0.06963644 -0.23262005 0.2686622 -0.11961338
000060 27 0f 7d bd 21 82 42 be 13 b0 a1 3e 68 ea 90 bd
       -0.06178203 -0.18994953 0.31579646 -0.070759594
000070 22 aa 6f bc 8d 06 22 3e 5c b1 92 bc 7f 5b 50 3e
       -0.014627965 0.15822811 -0.017906837 0.20347403

fc.bias f4 [2]
000000 62 43 f1 bc 0c 97 75 3e
       -0.029451076 0.23983401
