5G_report/rnn_model_RCC_New.pth (torch, 7004 bytes, 6 tensors)

rnn.weight_ih_l0 f4 [16, 49]
00000000: 5a22 78be 0236 973d 3c27 313c 80bb b8bd
00000010: b58c f33d 3c8e abbd fd64 3fbe 481f 16be
00000020: 2452 6a3c 50f1 e03d a8ba faba 9c05 8cbe
00000030: b4e9 1d3e 0c75 63be 4c94 80be f418 0bbe
00000040: 5796 f33c fe0d 2bbe 9f40 2fbe 68dc b7bd
00000050: 91b9 163d 18c3 f4bd ca79 16be f0ac 0abe
00000060: 506d ce3d e528 043c 703a 18be 116d 5bbe
00000070: d43c 173d 34c6 c2bd 75da 3c3e da33 143e
00000080: 87d1 513e fc8e 323e 0cea c53d 972f 883d
00000090: 2aa5 49be dc50 e73d 3f25 38bd cd8a 1a3c
000000a0: c609 ec3d f004 463e 534c 24be 80b8 01bd
000000b0: b3a3 99be 41f8 0bbe ae4b 16be 64d2 8fbe
000000c0: 7a0d 69bd 64cd 21bd 1614 94bd f2db cbbd
000000d0: b706 9a3e 78f5 443e 8723 ba3d ebee 853e
000000e0: 66b2 8c3e 2078 e43d b0f5 23bd 9350 58bb
000000f0: 5269 e33d 5ed9 35be 201f 5ebe fbbb 1ebe
00000100: c263 333e 9960 4abd bc3c 3ebe 61bc 913d
00000110: 1d48 9e3d 33a9 18bd 35df 9fbd 8dc9 10be
00000120: 5f2b 2cbe e8e2 293e 55dc 06be 27e1 bd3d
00000130: fa83 f33d f60d 13be 24f7 46be 8de5 4b3e
00000140: 79b5 41be 7bd2 833e fe7c be3d 2f34 53bd
00000150: 334e 87bd 1985 313e 71a3 f93d d708 41be
00000160: 66f3 29be b0c5 babc e97e 85bd 0e3e fd3d
00000170: 7db9 c4bd 4dcc 163e b282 98bd 9196 143e
00000180: 86e5 2bbe ac88 7e3e 4801 3fbe 9b52 c2bc
00000190: 4494 c3bd 3de0 bfbd efa8 0d3d deea 84be
000001a0: 400e 40be 7854 633e 602a 603d b5bd 62be
000001b0: 4c39 2cbe 8fe8 e5bc 9cd0 47be dd60 953d
000001c0: af6a 8f3e df09 913e 5380 153e 1306 803e
000001d0: d040 21be d32d 33be 7df1 243e efc0 4abd
000001e0: 39c9 063e 41a9 12be 8cc0 2e3e 5663 913e
000001f0: fa54 61bd be49 f83d c5a4 acbd 2c15 813e
00000200: be91 4fbe 2ddd 6ebe 86e4 7dbe 66b9 563e
00000210: d7a6 65bd 5e74 2fbe 11be 4b3d 9c01 1dbd
00000220: 9606 733c e961 393e 4bf5 623e e441 7d3c
00000230: 2552 233c 6b73 d93d 2432 73be 9f70 79bc
00000240: c3b1 c7bd 14be 883d 61c2 503e da8a 6b3e
00000250: c8e8 0fbe 8697 17be 2884 1a3e 2084 1dba
00000260: 3db3 213e 82ed 2e3e d3b3 7c3e 561f ae3d
00000270: 2e3c b7bd 56fa 0cbd e4e9 d93c 5aca 88bd
00000280: 99ff dd3c 008c 6b3e 6d7b 10be be45 07bc
00000290: 333a 483e 7b6a 77bd 0acb 0d3e a855 93bd
000002a0: 2ac0 0ebe d7f8 b3bd eb7c 98bc 4084 283e
000002b0: 8f15 013e 2039 9bbd ad3f 3cbe c83a d33d
000002c0: 68d8 7eb7 d104 093e d605 2a3c ca1b 983c
000002d0: bde1 cabd f9c1 5abe 9289 2d3e 5e30 5b3e
000002e0: 6c2d 4a3d 0ffb 193d d53e b6bd b4ae 44be
000002f0: adc6 473e 3e56 3ebe c16c 66be a31e 723d
00000300: 9c2c e43d 8ee2 ac3b 7a9c 253e ea04 4c3e
00000310: b770 263d 7b68 0ebe 3cdd 143e f920 c3bc
00000320: 0fc9 df3d e495 0bbe 70fd 39be 787b 05be
00000330: 59e2 793e 30e3 93bd 0213 ebbd a396 823e
00000340: 989e 47be a5fd 1e3d 78b1 06be 0859 c43d
00000350: c619 1abe 9ead 5a3e dbc9 a83d 6b52 283e
00000360: e2e0 58be e52b 85be 5c0c 9d3d 16ba 953e
00000370: f817 46be 4e04 a43d d291 2dbe 00d1 5bbe
00000380: 65cf 903e b020 23be 5c14 1f3e b88d 7bbe
00000390: 71a4 c63c 80c3 213e 4156 173e 4d44 0abe
000003a0: 37f0 243e 54c7 b6bd d746 e2bd 9e68 80be
000003b0: 1256 fc3d 49aa c03d ce7c 283e 698c 89be
000003c0: 8ed6 7b3a 8f62 2a3e f42a f63d 4f6a febd
000003d0: cfd1 623e df76 e93d 96b3 c73d 1f1a 0ebe
000003e0: 637b 093e 3fb2 febd 7174 8cbe d8d1 7e3d
000003f0: 3917 6abe 46a1 0c3d 1906 43be db2b fcbc
-0.24231854 0.07383348 0.010812577 -0.09020138 0.11892072 -0.083767384 -0.18690868 -0.1466037
0.01430181 0.10983527 -0.0019129114 -0.2734803 0.15421182 -0.22212619 -0.25113142 -0.13583738
0.029734774 -0.16704556 -0.17114495 -0.08977586 0.036798064 -0.11951274 -0.14694896 -0.13542533
0.100794435 0.008066391 -0.14866042 -0.21428324 0.036923245 -0.095104605 0.1844271 0.14472905
0.20490085 0.17437357 0.096637815 0.06649702 -0.19691911 0.112947196 -0.044957396 0.009432507
0.11525302 0.19337821 -0.1604474 -0.031670094 -0.30007705 -0.1366892 -0.14677307 -0.28090203
-0.056897618 -0.039502516 -0.072303936 -0.099540606 0.30083248 0.19234264 0.090888076 0.26158842
0.27479857 0.111557245 -0.040029228 -0.003300701 0.11104073 -0.177587 -0.21691561 -0.15501396
0.17518523 -0.04940853 -0.18577856 0.071160085 0.07728598 -0.037270736 -0.07806245 -0.14139386
-0.1681342 0.16590464 -0.13169987 0.0927146 0.11890407 -0.14360794 -0.19430214 0.19911785
-0.18916883 0.2574652 0.09301184 -0.051563438 -0.06606712 0.17335929 0.12189377 -0.18851028
-0.16596755 -0.022799343 -0.06518347 0.123653516 -0.096056916 0.14726372 -0.07446803 0.14510562
-0.16786775 0.24856824 -0.18652833 -0.02372103 -0.09549764 -0.09368942 0.034584936 -0.2596044
-0.18755436 0.22200191 0.054727912 -0.2214268 -0.16818732 -0.028064994 -0.19513172 0.07293866
0.2801108 0.28327844 0.14599733 0.25004634 -0.1574738 -0.1749795 0.16107745 -0.049500402
0.13162698 -0.14322378 0.17065638 0.283961 -0.05501268 0.1212344 -0.08429865 0.25211465
-0.2027044 -0.2332656 -0.24794206 0.20969161 -0.056067314 -0.17134234 0.04974181 -0.038331613
0.014833113 0.18103756 0.22163884 0.015457604 0.009968315 0.10617717 -0.23749596 -0.015224605
-0.09750702 0.066768795 0.2038665 0.23002186 -0.14053643 -0.14803895 0.15089476 -0.0006008763
0.1579103 0.1708279 0.24677972 0.085020706 -0.08947025 -0.034418426 0.026600786 -0.066792205
0.027099418 0.23002625 -0.14109583 -0.008256374 0.19553451 -0.060404282 0.13846985 -0.07194072
-0.13940492 -0.08787697 -0.018614253 0.164567 0.1260588 -0.07579255 -0.18383665 0.10313946
-1.5189966e-05 0.13380744 0.010377368 0.018567938 -0.099063374 -0.21363057 0.1694701 0.2140517
0.049359724 0.037592944 -0.08898703 -0.19207269 0.19509383 -0.18587586 -0.22502424 0.05911125
0.11141321 0.005276031 0.16172972 0.1992375 0.040634837 -0.13907044 0.14537519 -0.023819434
0.10927021 -0.13631397 -0.18163085 -0.13035381 0.24402751 -0.07221067 -0.11478235 0.25505552
-0.19494092 0.038816113 -0.13153636 0.09587294 -0.15048894 0.21355292 0.08241626 0.1643769
-0.21179536 -0.2601005 0.07668373 0.29243535 -0.19345081 0.080086336 -0.16950157 -0.21466446
0.2828323 -0.15930438 0.1553511 -0.2456578 0.024248334 0.15797234 0.14778997 -0.13502617
0.1610726 -0.089247376 -0.11048668 -0.25079817 0.12321104 0.09407479 0.16453859 -0.26864937
0.0009606861 0.1663916 0.120199114 -0.124226205 0.22150348 0.11399626 0.0975105 -0.13877152
0.13425975 -0.124363415 -0.27432588 0.06221184 -0.22860421 0.03433349 -0.19045295 -0.03078263

rnn.weight_hh_l0 f4 [16, 16]
00000000: 9e9e 7bbd 8842 36be ea55 13bc d976 9d3d
00000010: 8f42 1ebd 4b64 453e 4c86 983b b1f1 d5bd
00000020: fc1d 66be 095f 133e 0bcd 4fbd 1229 473e
00000030: 91d7 2dbe 0ad7 8abe 80bd f5bd 8e7b 0b3e
00000040: 335b ccbd 1430 9f3d 3b08 d33c 9ab2 843e
00000050: 54a6 563e a944 3d3e 8200 263d b5bc 1b3e
00000060: e7b3 62bd 88a9 d6bd 3398 32be f8b6 373c
00000070: 2bb3 a23e 6692 1cbc fecb 013e 327c 073e
00000080: 9623 2dbe ee30 363e 60fd b0bd ad4b 993e
00000090: 5fdb 02be 2f2f 4c3e 2771 1dbc 8ce6 a5bd
000000a0: 5f58 2e3d 152b 09bc f44b 2cbe d4cb 623e
000000b0: 67a7 1e3e 0311 fc3d 9eb0 9f3e acc0 093d
000000c0: 5da6 893b 56fe 723e 9a6f 0a3e 1ed8 913e
000000d0: 215b 5d3e fc1d be3d 6f07 1d3e 6a91 2ebe
000000e0: eb92 0bbe 02b0 13bd fccd 673d 8982 73be
000000f0: 8ee9 5cbd fffa 19be beb2 833e 3135 333d
00000100: 1d33 9bbe db20 683d 214a 0c3d 6649 003e
00000110: a805 97bd 9d9c babd 0985 1dbe 3845 08be
00000120: 5313 1cbe 074c 1abe 77b7 90be 5ed9 173d
00000130: b777 de3d e113 773c 110c d83d 67a0 953e
00000140: 37fe 91bd 40af 8d3d eca7 51be de16 8bbe
00000150: 1f7d dbbd 4333 dfbd 6de2 53bd 18e7 a6bd
00000160: 44eb 99bd 4028 b43d 22bf e73d a01b 8b3e
00000170: 3d61 bebd 967b 1f3d f292 90bd e9e9 49be
00000180: 744c 323e 5306 87bd a860 e33d b066 233e
00000190: b91e 133e 760b 673e ab12 3d3b 1e35 80be
000001a0: 1647 563c de32 56bd 1796 37be e29f 02be
000001b0: c7d6 a2be 582c 28be d7bf e5bd e626 84be
000001c0: 1028 75bd 5320 cb3d 95fa e53d 5343 23be
000001d0: ce70 323e 2fb8 623e 72b8 cc3d a76c 8f3d
000001e0: fa62 6f3e b39f 14be 6953 f9bd 2c32 c0ba
000001f0: 929b 43be 18c1 edbd a02c bc3c 1aa9 4c3e
00000200: 953c 8bbe 1068 93bd 55e5 5b3e da02 803c
00000210: 42c7 0ebe 48b5 6abd 294a eebd a228 9e3e
00000220: 04f6 853e cf65 5d3e 5b3c 86bd e51b 80bd
00000230: 60c5 5e3d 1691 253e 800a 523d 861b 22be
00000240: aa35 113d 9efb 0bbe ea92 94be c82e aebe
00000250: 76e0 b33d 756b 443e adb3 21be 8149 be3c
00000260: 4b78 4abd c998 21be 4c7e 13be 7cb3 dbbd
00000270: b8d2 95bd 25a9 81be a651 473d 3d1d 94be
00000280: 4c99 cc3c 9cda 92be 5fcd 1a3e 8924 053e
00000290: c50f 90bd 4337 863e cc41 663e c503 80be
000002a0: dddd 3abb b54e 353e 6cff e5bd 62fa 8b3e
000002b0: a529 b4bc 266d 93be d2d2 22bd 6779 7c3d
000002c0: f421 bb3d 7ef1 c83d 4e6b 17bd 8353 2ebc
000002d0: 2546 823d ae5c 02be 9619 77bd d015 e6bd
000002e0: d120 b73d 9404 eb3d f278 2a3e c8cf 8cbe
000002f0: 2bf7 013e 3604 c7bd e460 913c 4122 9c3e
00000300: b35b a6be ff00 ad3d f644 393e 8408 dfbd
00000310: fec2 573e 362c 7e3e 171d 87be d106 9c3e
00000320: fd1a 293e ace1 39be 7fe6 d03d fd76 a13e
00000330: d266 20bc dc88 903d 8d27 6b3e 88df 673e
00000340: d246 bbbd 0048 463d 0a75 c23d 2796 89bd
00000350: 1ec4 123e d484 153d 6470 e83d 3b77 1fbe
00000360: d1a4 373e 83e7 2ebe adb6 83bc 6712 063e
00000370: bc4e a23e 3930 95bd cfd7 8b3d a9ad f0bd
00000380: 3531 95be e378 603e dbd3 ca3b 5762 623d
00000390: 3694 9b3e 7291 15bc 7a68 1d3d 2369 ba3d
000003a0: 6c6d 413e afb1 b53d bc6b 66be 998f 28bd
000003b0: e693 8f3e 0eda 01bd 2c12 05be 6bee 2d3d
000003c0: 2705 1fbe a80d 3f3e 53ea 20bd a2c5 f53d
000003d0: e85b 963e 0f8f 50be a1b0 32be c786 2a3d
000003e0: c636 fe3c 0249 99bd e464 bbbd b1fb 12bd
000003f0: 03cd 5abc 735a 5b3e 8380 61be fa4d 063e
-0.061430566 -0.17798817 -0.0089926515 0.07688684 -0.038637694 0.1927654 0.0046546813 -0.104464896
-0.22472376 0.14391722 -0.050732654 0.19449261 -0.16976763 -0.27117187 -0.11999035 0.13621351
-0.09978332 0.07772842 0.02576076 0.25917512 0.20961887 0.18483223 0.040527828 0.15208705
-0.05534735 -0.10481554 -0.17440872 0.011213057 0.3177732 -0.0095563885 0.12675473 0.1323097
-0.16908106 0.17792103 -0.086420774 0.2994055 -0.12778996 0.19939874 -0.009609497 -0.08100614
0.042564746 -0.008372088 -0.16825849 0.22148067 0.15493546 0.12307932 0.31189436 0.03363101
0.0042007403 0.23729834 0.13519135 0.28485197 0.21616794 0.09283063 0.15334867 -0.17047659
-0.13630264 -0.036056526 0.056592926 -0.23780264 -0.053933673 -0.15037154 0.25722307 0.0437519
-0.30312434 0.05667196 0.034250382 0.12528 -0.07374126 -0.09111903 -0.1538278 -0.13307655
-0.15241747 -0.15068065 -0.28264973 0.037072532 0.108626775 0.015080423 0.105491765 0.2922394
-0.07128566 0.06918192 -0.20474213 -0.27165884 -0.10717224 -0.10898449 -0.05172961 -0.081495464
-0.075155765 0.087967396 0.113157526 0.27169514 -0.092958905 0.03893622 -0.070592776 -0.19718136
0.17411977 -0.06593003 0.1110242 0.15957141 0.14367189 0.22562966 0.0028850238 -0.25040525
0.013078472 -0.052294604 -0.17928348 -0.12756303 -0.31804487 -0.16423166 -0.11218231 -0.25810927
-0.05985266 0.09918275 0.11229435 -0.15943651 0.17425844 0.22140573 0.09996118 0.07003146
0.233776 -0.14514045 -0.12174112 -0.001466339 -0.19102314 -0.11609095 0.022970498 0.19986382
-0.27194658 -0.07197583 0.21474202 0.01562636 -0.13943198 -0.05730179 -0.11635239 0.30890375
0.26164258 0.21620868 -0.06554481 -0.062553205 0.05438745 0.16168627 0.051279545 -0.15830812
0.03545157 -0.13670203 -0.29018337 -0.34020066 0.08783047 0.19181617 -0.15791197 0.023228409
-0.049431127 -0.15780939 -0.14403647 -0.10727593 -0.07315582 -0.2532436 0.04866185 -0.28928557
0.024975441 -0.2868241 0.15117405 0.13002218 -0.07034258 0.26214036 0.22486037 -0.25002876
-0.0028513588 0.17705806 -0.112303585 0.27339464 -0.021992514 -0.2879421 -0.039751835 0.061639216
0.091373354 0.09811686 -0.036967568 -0.010640028 0.06361035 -0.12730667 -0.060327135 -0.11234629
0.08941806 0.114754826 0.166477 -0.27502275 0.12691943 -0.097176 0.017746396 0.30494884
-0.32491836 0.084474556 0.18092713 -0.10890296 0.21070477 0.24821553 -0.2638938 0.3047395
0.16514201 -0.18152493 0.10200214 0.31536093 -0.009790139 0.07057354 0.22964306 0.22643864
-0.09144367 0.04840851 0.0949498 -0.067180924 0.14332625 0.036503628 0.11349562 -0.15572827
0.17933966 -0.17080502 -0.016078318 0.13092957 0.31700695 -0.07284588 0.068282716 -0.11751873
-0.29139104 0.21921115 0.006189806 0.055269565 0.30386513 -0.009128915 0.038429715 0.091020845
0.18889397 0.08871781 -0.22502035 -0.04115257 0.28042525 -0.031702094 -0.12995213 0.0424637
-0.15529309 0.18657553 -0.03928597 0.12000586 0.29366994 -0.20367073 -0.17450191 0.04163244
0.031031977 -0.07484628 -0.09150103 -0.035884563 -0.013354543 0.21421222 -0.2202168 0.13115683

rnn.bias_ih_l0 f4 [16]
00000000: 0f5a 18bd c537 18be 1b16 3cbe 395f 633e
00000010: 5974 103e 7120 9e3b 6895 8dbe a30e 363e
00000020: 8a91 563e ee23 b0bd 5876 2ebe a8e2 733e
00000030: 67ed b2bd 74ef d53d 1ffe 513e a97a ef3d
-0.03719526 -0.14865024 -0.18367808 0.22204293 0.14106883 0.0048256447 -0.2765305 0.17779021
0.20953956 -0.08600603 -0.17037332 0.23816931 -0.08736687 0.10446063 0.20507096 0.116933174

rnn.bias_hh_l0 f4 [16]
00000000: 3a49 3dbe 7a35 a03e f0a6 553e e6cd 643e
00000010: dce3 aebc 7bae 4b3e cb39 a8bd d50f 133d
00000020: 908a 803e 9625 9cbb b785 c0bd c32e ddbd
00000030: 02a8 353e f7d7 8e3e f7fb 14bd 8ac9 333e
-0.18484965 0.312908 0.20864463 0.22344169 -0.021348886 0.19890778 -0.08214148 0.03590377
0.25105715 -0.004765223 -0.09400504 -0.10799935 0.17739871 0.27899143 -0.036373105 0.1755735

fc.weight f4 [2, 16]
00000000: 840a 7abe 7ddc 623e 96d7 683e 0210 883e
00000010: 9502 863e ece2 f43c e305 4bbe bf01 8a3e
00000020: c3e7 7b3e 36ec b4bd 4ab1 8ebe 93a7 f53d
00000030: b3bc 04be 84c9 873e a5c2 413d e0b3 653b
00000040: ecf1 a63e ef76 32be 4918 febb 00a5 9bbd
00000050: 8d03 40be e034 443e bc94 4f3e e64e 3c3e
00000060: 190a 10be 39c8 2f3e 99b8 4dbd ed28 6ebe
00000070: eae0 9dbe 53b1 2fbe d0d2 76be a779 303d
-0.24418074 0.22154422 0.2273849 0.26574713 0.26173845 0.029893361 -0.19826464 0.26954457
0.24600129 -0.08834116 -0.27869636 0.11994853 -0.12962608 0.26520932 0.047304768 0.003504984
0.32606447 -0.17428182 -0.00775436 -0.075998306 -0.18751355 0.19160795 0.20271581 0.18389472
-0.14066352 0.17166223 -0.050224874 -0.232578 -0.30835658 -0.17157488 -0.24103856 0.043084767

fc.bias f4 [2]
00000000: e6e7 8f3e d4b2 9bbe
0.28106612 -0.30409873
