5G_report/rnn_model_NAS_final.pth (torch, 7324 bytes, 6 tensors)

rnn.weight_ih_l0 f4 [16, 54]
0	0x3cdecf17	0.027198358
1	0x3e0e24a6	0.13881168
2	0xbe2c8148	-0.16846192
3	0xbd91d3c1	-0.07120467
4	0x3e8c5569	0.27408913
5	0xbcb13eb6	-0.021636348
6	0x3e3452b9	0.17609681
7	0x3e8833f7	0.26602146
8	0x3e1f8740	0.15578938
9	0x3e97b3ad	0.2962927
10	0xbe3f4370	-0.18678069
11	0x3b2ca84f	0.0026345437
12	0xbe398efa	-0.18120947
13	0x3e06fcaa	0.13182321
14	0x3dd4de8e	0.103940114
15	0x3e07d4a5	0.13264711
16	0xbd857468	-0.06516343
17	0x3e87dbb8	0.2653482
18	0xbd868100	-0.065675735
19	0xbc738f31	-0.014865682
20	0xbe8e81b1	-0.27833322
21	0x3e85b558	0.26114917
22	0x3c0bc3b7	0.008530549
23	0xbe2650b4	-0.16241723
24	0x3e6d8e16	0.23198733
25	0xbd20f46d	-0.039295603
26	0xbdecea27	-0.115680985
27	0xbcb0b645	-0.021571288
28	0xbbe41c3d	-0.006961374
29	0xbe5d1d66	-0.21593246
30	0x3e7093a3	0.23493819
31	0xbe7a29f0	-0.2443006
32	0xbd7d4106	-0.06182959
33	0x3b999064	0.004686402
34	0xbd8617bd	-0.065474965
35	0x3d87d1de	0.06631826
36	0xbe50149b	-0.2032036
37	0xbe72905c	-0.23687881
38	0xbe281c97	-0.16417156
39	0xbd3b69d0	-0.045755208
40	0xbd750d86	-0.05982735
41	0xbcae3001	-0.021263124
42	0x3cd5acc8	0.026083365
43	0xbe83f2b1	-0.25771096
44	0x3e3100e0	0.1728549
45	0x3d32ebc7	0.043681886
46	0xbe433015	-0.1906131
47	0xbdc7fc6b	-0.09764942
48	0x3d7e76cb	0.06212501
49	0x3cae0cf7	0.021246416
50	0x3d58d87e	0.052940838
51	0xbe0f3885	-0.13986404
52	0x3dc02dc8	0.09383732
53	0xbe4ccea1	-0.20000698
54	0x3dabd8d1	0.08390964
55	0xbd37cb3f	-0.044871565
56	0x3c22c828	0.009935416
57	0xbdaccfc0	-0.08438063
58	0xbcd96ef1	-0.026542159
59	0xbd6a14d4	-0.05714877
60	0x3e23bd66	0.15990219
61	0xbd1044dc	-0.03522192
62	0xbe558b6b	-0.20853965
63	0x3da88daa	0.08230145
64	0x3dc850bd	0.097810246
65	0x3b8eb49c	0.0043550264
66	0x3e129860	0.14315939
67	0xbdf91336	-0.12161867
68	0x3d80cb21	0.06288744
69	0x3daf4f1c	0.08560011
70	0x3c44ed58	0.012019478
71	0x3e12817a	0.14307204
72	0xbcbfbccb	-0.023405453
73	0xbe1d556d	-0.15364619
74	0xbda0fe34	-0.078609854
75	0x3e06a98d	0.13150616
76	0xbcf4e7ee	-0.029895749
77	0xbd439be2	-0.047756083
78	0x3e91d7e6	0.2848503
79	0x3e2c672c	0.16836232
80	0xbdca245b	-0.098702155
81	0x3d4e7e5e	0.050413482
82	0xbe4cff82	-0.20019343
83	0x3dcb6f1f	0.09933304
84	0x3e4bfe7e	0.199213
85	0x3dd59e07	0.10430532
86	0x3e197ae6	0.14988288
87	0xbe139636	-0.1441277
88	0xbe691246	-0.22760877
89	0x3da76a52	0.08174576
90	0xbdeec910	-0.116594434
91	0xbe8236e4	-0.25432503
92	0x3e4e0782	0.20120052
93	0x3dfa75e3	0.12229516
94	0xbe0ac76e	-0.13552639
95	0x3e5efd13	0.21776228
96	0xbafb8210	-0.0019188542
97	0x3e2c3c17	0.16819797
98	0xbe307aeb	-0.1723439
99	0x3e784144	0.24243647
100	0x3ddd7088	0.10812479
101	0xbe153585	-0.14571197
102	0xbe0f7966	-0.14011154
103	0x3d32a7f0	0.04361719
104	0xbe96d3b7	-0.294584
105	0x3d7c942f	0.061664756
106	0xbd1c8de0	-0.03822124
107	0x3dd302d9	0.103032775
108	0x3e9925b3	0.29911575
109	0x3d749622	0.05971349
110	0x3d45ada4	0.0482613
111	0xbe25aaac	-0.16178387
112	0x3a87ee5b	0.0010370718
113	0xbb37d68a	-0.002805146
114	0xbb4b1d50	-0.0030992813
115	0x3e6b82bd	0.22999091
116	0x3da5fdd0	0.081050515
117	0x3e774e52	0.2415097
118	0xbddb4b18	-0.10707682
119	0x3e760de8	0.24028742
120	0x3d133650	0.03594047
121	0xbe5b05da	-0.21388951
122	0xbe75748a	-0.23970237
123	0xbd2b050c	-0.04175286
124	0x3d760fb5	0.060073573
125	0xbe35a43b	-0.1773843
126	0x3e27e145	0.16394527
127	0xbe5c21c3	-0.21497254
128	0x3d7107f0	0.05884546
129	0x3e4ec68d	0.20192929
130	0x3e833714	0.2562796
131	0xbe39461d	-0.18093152
132	0xbe38c26d	-0.18042918
133	0xbd8c179d	-0.068404414
134	0x3e21213d	0.15735336
135	0xbe5b7fe6	-0.21435508
136	0xbda02b2a	-0.07820733
137	0xbd9d3f42	-0.07678081
138	0xbe498863	-0.19680934
139	0xbdd6ab34	-0.10481873
140	0x3e8da3dd	0.2766408
141	0xbd7a4fed	-0.06111138
142	0xbd88d1cd	-0.06680641
143	0xbdd77f0b	-0.105222784
144	0x3e26071f	0.16213654
145	0xbdc048a5	-0.09388856
146	0xbdcd624e	-0.10028516
147	0xbda4cc7d	-0.080468155
148	0xbe1b8288	-0.15186512
149	0x3b5cdda7	0.003370145
150	0x3d81a6ae	0.0633062
151	0x3e205fa3	0.15661483
152	0x3d075ca7	0.033047345
153	0xbe3dff83	-0.18554501
154	0xbe64a03b	-0.22326748
155	0xbd88bda0	-0.06676793
156	0xbd535d36	-0.051602565
157	0xbe903fd6	-0.28173703
158	0xbe9b9a14	-0.3039099
159	0xbe0c0fb0	-0.1367786
160	0xbe43a143	-0.19104485
161	0x3e8da412	0.27664238
162	0x3ceb6609	0.028735178
163	0x3d9c2bb6	0.07625525
164	0x3d57a3d9	0.05264649
165	0x3a8b7f1f	0.0010642743
166	0x3d707a4c	0.05871038
167	0x3db63556	0.08896892
168	0x3dda82dd	0.106694914
169	0x3d4e3483	0.050343048
170	0x3d87b959	0.06627149
171	0xbe65b449	-0.22432055
172	0x3e02b96f	0.1276605
173	0xbe45ea05	-0.19327553
174	0xbd8d6b84	-0.069052726
175	0xbe29c366	-0.16578445
176	0xbe26a107	-0.16272365
177	0xbe3066e5	-0.17226751
178	0x3df06363	0.117377065
179	0x3c8494b8	0.016184196
180	0xbde2976f	-0.1106404
181	0x3e3558de	0.17709681
182	0xbdc6e4e7	-0.097116284
183	0x3e4548e5	0.19266088
184	0xbd101b70	-0.035182416
185	0x3dfdcfa8	0.12393123
186	0x3e05bee2	0.13061097
187	0x3d839756	0.064253494
188	0x3e580e31	0.21099164
189	0xbe43b4f7	-0.19112001
190	0xbd5e9789	-0.054343734
191	0x3e82859c	0.2549256
192	0x3d27ff74	0.041015103
193	0x3db8e1f9	0.09027476
194	0x3ccf08c2	0.02527273
195	0xbe15f3f3	-0.1464384
196	0xbe3780ad	-0.1792018
197	0x3d280ad9	0.04102597
198	0xbe177b50	-0.14793134
199	0xbe726a1c	-0.2367329
200	0x3d9edcd1	0.07756961
201	0xbe847271	-0.25868562
202	0xbdbd943e	-0.092567906
203	0xbdf72828	-0.12068206
204	0xbe90f759	-0.2831371
205	0x3d799558	0.06093344
206	0x3e63171d	0.22176786
207	0xbb8c031d	-0.004272832
208	0xbdc56157	-0.09637707
209	0x3df428e9	0.119218655
210	0x3c13c74f	0.009019687
211	0x3e25c5d5	0.16188748
212	0xbd333da1	-0.043759946
213	0x3d2b05e5	0.04175367
214	0xbe792e5f	-0.24334095
215	0x3e13d923	0.144383
216	0x3e6c5806	0.23080453
217	0x3e734bc0	0.23759365
218	0x3de0de91	0.10979951
219	0x3e6d681c	0.23184246
220	0xbdff7207	-0.12472921
221	0x3da0e9c6	0.07857089
222	0x3e8de53c	0.27713954
223	0xbd804deb	-0.06264862
224	0xbe382581	-0.17983057
225	0xbe27cac2	-0.1638594
226	0xbe7270ed	-0.2367589
227	0xbc63ee06	-0.01391173
228	0xbe63aa5e	-0.22232959
229	0xbdb015d2	-0.08597912
230	0xbdc42c2f	-0.0957874
231	0xbd6548ba	-0.05597756
232	0xbe0a4903	-0.13504414
233	0xbdfb73c9	-0.12277944
234	0xbe42cf95	-0.19024499
235	0xbe7d7366	-0.24751052
236	0xbe1ea5b8	-0.15492904
237	0x3e7cbd38	0.24681556
238	0x3cef3337	0.029199226
239	0xbe244887	-0.16043292
240	0xbe4d9e7e	-0.20079991
241	0xbe0fbbf4	-0.14036542
242	0x3e63c4b5	0.22243007
243	0xbe7c7396	-0.24653468
244	0xbe99c4f2	-0.3003307
245	0xbc41bb8d	-0.011824501
246	0x3e9e71b7	0.30946133
247	0x3bf7b96d	0.0075599463
248	0x3e1cace8	0.15300333
249	0x3da5b7a7	0.080916695
250	0xbe6103a3	-0.21974044
251	0xbe1a5f5e	-0.15075442
252	0xbc29dda6	-0.0103677865
253	0x3e409076	0.18805107
254	0x3daf9f42	0.08575298
255	0xbe8b50ac	-0.27209985

rnn.weight_hh_l0 f4 [16, 16]
0	0x3cd323bf	0.025773881
1	0x3e698fee	0.22808811
2	0xbda58a21	-0.080829866
3	0xbd573784	-0.05254318
4	0x3e986500	0.29764557
5	0xbe1c26e0	-0.15249205
6	0x3e05574c	0.13021582
7	0x3e9b231a	0.30300218
8	0xbd4a8157	-0.049439754
9	0x3e7f05c4	0.24904543
10	0xbda291da	-0.07937975
11	0xbd4082b3	-0.046999644
12	0x3e496d5b	0.19670622
13	0x3d0da36b	0.034579676
14	0x3e64048e	0.22267362
15	0x3db5da20	0.08879495
16	0x3daed36e	0.08536421
17	0x3d9f8a92	0.07790102
18	0x3e88ebfd	0.26742545
19	0x3e73c2b9	0.2380475
20	0x3e1a0461	0.15040733
21	0xbe485c8c	-0.19566554
22	0xbea7ab2f	-0.3274779
23	0x3c9f6c37	0.01946078
24	0x3e9c3800	0.30511475
25	0x3e8f0cbf	0.27939412
26	0xbd3c20d7	-0.045929756
27	0xbe96dc34	-0.29464877
28	0x3e4bfdfb	0.19921105
29	0x3e40d162	0.18829873
30	0x3d889db7	0.06670707
31	0x3e68565c	0.22689193
32	0xbe924f16	-0.28575963
33	0xbe775ae2	-0.24155763
34	0xbd940557	-0.07227581
35	0x3e95dbba	0.292692
36	0x3ea2bfc3	0.31786928
37	0xbe0cdcef	-0.13756154
38	0xbd0a459b	-0.033757787
39	0xbda385cd	-0.07984505
40	0x3e31a31c	0.17347378
41	0xbe92287c	-0.28546512
42	0x3e25acb8	0.16179168
43	0xbe7a97c6	-0.2447196
44	0xbe1ab865	-0.15109403
45	0x3ea223f2	0.3166805
46	0x3e904b6e	0.28182548
47	0x3e86f7cf	0.26360938
48	0xbe843daf	-0.2582831
49	0xbda56814	-0.08076492
50	0xbe8acbbc	-0.27108562
51	0x3d797536	0.060902797
52	0xbd9063d6	-0.07050292
53	0x3e974196	0.29542226
54	0x3d9bf823	0.07615688
55	0xbe70b524	-0.235066
56	0xbdfd41fe	-0.12366103
57	0xbe675ee3	-0.2259479
58	0x3e90feed	0.28319493
59	0x3ea55148	0.32288575
60	0x3dc51675	0.09623424
61	0xbe790560	-0.24318457
62	0x3d8df67f	0.06931781
63	0x3c9ecf26	0.019385885
64	0xbe89e9b1	-0.26936105
65	0xbdd63ec3	-0.104611896
66	0xbeaa6bf8	-0.332855
67	0x3ea91260	0.33021832
68	0x3e3ae7b5	0.18252452
69	0x3e93e563	0.28885946
70	0xbe00a72b	-0.1256377
71	0xbd476a94	-0.048685625
72	0x3e3c4463	0.18385462
73	0xbe662f8f	-0.2247908
74	0x3e4e4348	0.20142853
75	0x3ddd601d	0.10809348
76	0xbdde7381	-0.10861874
77	0x3dc5c5e8	0.09656888
78	0xbdace41e	-0.084419474
79	0xbce0c987	-0.027439846
80	0x3e6ee9a6	0.23331317
81	0x3db1c0b5	0.08679334
82	0xbea88da1	-0.32920554
83	0xbd1006f4	-0.03516288
84	0xbdc374a5	-0.095437326
85	0xbddca891	-0.10774339
86	0x3d1530f8	0.036423653
87	0xbe164558	-0.1467489
88	0x3d1e52e5	0.038653273
89	0xbe07b7fb	-0.13253777
90	0x3e7c3d9d	0.24632879
91	0xbe11984a	-0.1421825
92	0xbea8c7bc	-0.32964885
93	0xbe8ba166	-0.27271575
94	0xbe0184e9	-0.12648357
95	0x3de61dbc	0.1123614
96	0xbde27196	-0.11056821
97	0x3ea58603	0.32328805
98	0x3d35c062	0.044372924
99	0xbd3c4230	-0.04596156
100	0xbe8a339e	-0.26992506
101	0xbea70eff	-0.3262863
102	0xbd781185	-0.060563583
103	0xbe5e3380	-0.21699333
104	0xbd46baee	-0.048518114
105	0x3cab4efc	0.020911686
106	0xbea15e80	-0.3151741
107	0xbc4df9fc	-0.012571808
108	0x3be3684b	0.006939923
109	0x3bb38474	0.005478436
110	0x3cc973f5	0.024591425
111	0x3e1ec74b	0.15505712
112	0xbd0d4cd5	-0.0344971
113	0xbeb05559	-0.34440115
114	0xbe6d5113	-0.23175459
115	0x3e54c567	0.20778428
116	0xbe283855	-0.16427739
117	0x3ea5482f	0.32281634
118	0xbd8cf4e5	-0.068826474
119	0x3e25e8b1	0.16202046
120	0x3e7dc1ac	0.24780911
121	0xbe877670	-0.26457548
122	0x3d87abcd	0.06624565
123	0xbc3eaa88	-0.0116373375
124	0x3d74a1a9	0.059724484
125	0x3d72d7e7	0.05928793
126	0x3b3898fc	0.0028167358
127	0xbc3fe878	-0.01171314
128	0xbe00a046	-0.1256114
129	0xbe40990e	-0.18808386
130	0xbd77903d	-0.06044029
131	0xbd816761	-0.06318546
132	0x3e295ae3	0.16538577
133	0x3df49d95	0.11944119
134	0x3e54c39a	0.20777741
135	0x3dc9f917	0.09861963
136	0x3dcf8d48	0.10134369
137	0x3d917a42	0.07103397
138	0x3ea73f95	0.32665697
139	0x3e7e4b91	0.24833514
140	0xbea136d2	-0.31487137
141	0xbb037a3a	-0.0020061866
142	0xbe60886c	-0.21927041
143	0xbddd5a1b	-0.10808202
144	0xbc85d245	-0.016335616
145	0x3d18e08d	0.037323523
146	0x3ea12ee0	0.31481075
147	0x3e618df1	0.22026803
148	0x3de636bc	0.112409085
149	0x3d6d0993	0.05787046
150	0x3e0cac83	0.13737683
151	0x3e3a8412	0.18214443
152	0xbd792c08	-0.060833007
153	0xbde10f3d	-0.109892346
154	0x3e4dd27c	0.20099825
155	0xbe56c354	-0.2097295
156	0x3e091f69	0.13390888
157	0x3e89416d	0.26807728
158	0x3e825f3a	0.25463277
159	0x3e0590ab	0.13043468
160	0xbdf2a9e9	-0.11848814
161	0xbe7ccc7d	-0.24687381
162	0xbe155dca	-0.14586559
163	0xbc8de13e	-0.017319318
164	0xbe25531a	-0.16144982
165	0x3e3eb1e4	0.18622547
166	0x3d155778	0.03646037
167	0xbe05dcdb	-0.13072531
168	0xbe898729	-0.26860932
169	0x3c98ef04	0.018668659
170	0xbd8be07e	-0.06829928
171	0x3dda8100	0.10669136
172	0xbe77b9ca	-0.24191967
173	0x3df597b5	0.119918264
174	0xbe935668	-0.2877686
175	0x3d8c1269	0.06839449
176	0xbdafe451	-0.0858847
177	0x3e80cc80	0.2515602
178	0x3e967f52	0.29394013
179	0xbdfe4c77	-0.12416928
180	0xbda0d4bc	-0.07853076
181	0xbeab0dac	-0.33408868
182	0xbe05aef1	-0.13055016
183	0xbe982e42	-0.29722792
184	0xbdf289a7	-0.11842661
185	0x3e5a2298	0.21302259
186	0xbdcc767a	-0.09983535
187	0x3dfacb8f	0.12245857
188	0x3e29e15b	0.16589873
189	0x3d2ae2c9	0.041720185
190	0xbddc4cba	-0.10756822
191	0xbe92e759	-0.2869213
192	0x3e57f97a	0.21091262
193	0x3e348dee	0.17632267
194	0xbdeba251	-0.11505569
195	0xbd71850c	-0.058964774
196	0x3e99ad5b	0.30015072
197	0x3e1cbe0d	0.15306874
198	0xbe3234a0	-0.17402887
199	0x3ea04221	0.31300452
200	0x3e9940a1	0.2993212
201	0x3c8a3d4f	0.016874937
202	0xbe75afa2	-0.2399278
203	0x3e3bfb15	0.18357499
204	0x3e8ea8b9	0.278631
205	0xbd07de8a	-0.033171214
206	0x3d95730c	0.07297334
207	0x3d24d976	0.04024645
208	0xbe6bf7dc	-0.2304377
209	0xbe9fec38	-0.31234908
210	0x3d0c676d	0.034278322
211	0x3db75545	0.08951811
212	0xbe49a761	-0.19692756
213	0xbd0c9125	-0.034318108
214	0x3e949c45	0.29025474
215	0x3cc80f18	0.02442126
216	0x3e6f30f1	0.23358513
217	0xbd1ae420	-0.037815213
218	0x3ea4f269	0.32216194
219	0x3ba4e881	0.0050325994
220	0xbe18a657	-0.14907204
221	0x3ddf2db0	0.10897386
222	0xbda49d39	-0.080378
223	0x3e68a25e	0.22718188
224	0xbde8790d	-0.113512136
225	0xbe560d23	-0.20903449
226	0xbe9b5ead	-0.3034567
227	0x3e888a38	0.26667953
228	0x3e9ca8cc	0.30597532
229	0x3d71951c	0.058980092
230	0xbe02b739	-0.12765206
231	0x3e2ee969	0.17081226
232	0xbde63365	-0.112402715
233	0xbe785e89	-0.24254812
234	0x3e3b6dfd	0.18303676
235	0xbd429620	-0.04750645
236	0xbe108160	-0.14111853
237	0x3e52ee88	0.20598805
238	0xbc210b12	-0.0098292995
239	0x3e7f5269	0.2493378
240	0xbdcb9c7a	-0.09941955
241	0xbe2f5e29	-0.17125763
242	0xbe8044ef	-0.25052592
243	0xbdaabddb	-0.08336993
244	0x3ce175d8	0.027522013
245	0x3da7a2f6	0.08185379
246	0xbdccd494	-0.100014836
247	0x3b7e630d	0.0038816363
248	0x3e20bebf	0.15697764
249	0xbe68b65c	-0.22725815
250	0x3e107ee4	0.14110905
251	0xbe046c5b	-0.1293196
252	0x3d9c440b	0.07630166
253	0xbdfe1345	-0.12406019
254	0xbc26cc9f	-0.010180621
255	0xbe45eb24	-0.1932798

rnn.bias_ih_l0 f4 [16]
0	0x3daf7905	0.085680045
1	0xbe4b21ff	-0.19837187
2	0x3d156697	0.03647479
3	0xbdcd7059	-0.10031194
4	0x3dcc3adb	0.09972163
5	0xbd68b2c0	-0.056811094
6	0xbd2fd082	-0.042923458
7	0x3dc67648	0.09690529
8	0x3daa9d7e	0.083308205
9	0xbe58bdc7	-0.21166144
10	0x3dbcace9	0.092126675
11	0xbe262ff7	-0.16229235
12	0x3d6eb466	0.05827751
13	0xbe4aa2e2	-0.19788697
14	0x3e0cc3a5	0.13746507
15	0x3dfbd6fe	0.12296866

rnn.bias_hh_l0 f4 [16]
0	0x3b6de69e	0.0036300789
1	0x3de8ad0d	0.11361132
2	0x3c57a8a1	0.013162763
3	0xbdae372a	-0.085066155
4	0xbd00cb04	-0.03144361
5	0x3cf717cc	0.030162714
6	0x3ce2dd2c	0.027693354
7	0xbdc29ccc	-0.09502563
8	0xbe530942	-0.20609
9	0x3e691698	0.22762525
10	0x3da73656	0.08164661
11	0x3e1c9a1a	0.1529316
12	0x3be56799	0.007000875
13	0x3e229ab7	0.15879332
14	0xbe337a3a	-0.17527094
15	0xbe49c792	-0.19705036

fc.weight f4 [2, 16]
0	0x3eb4e42e	0.35330337
1	0x3e15a222	0.1461263
2	0xbe969382	-0.29409415
3	0xbc99ded3	-0.018783009
4	0xbe45e6bf	-0.19326304
5	0xbe82d01f	-0.2554941
6	0x3e92e96f	0.2869372
7	0xbe6e70d6	-0.23285231
8	0x3cb8baea	0.022550065
9	0xbe960a1b	-0.29304585
10	0xbe8e96b7	-0.2784936
11	0x3e318366	0.17335281
12	0x3de83b68	0.11339456
13	0xbea04e1f	-0.31309602
14	0xbeb37c7c	-0.35055912
15	0xbe6d773a	-0.23190013
16	0x3bddfa31	0.00677421
17	0x3d59768d	0.053091574
18	0x3d7a00ac	0.061035797
19	0xbb0303c9	-0.001999127
20	0x3e9696db	0.2941197
21	0x3c1786e1	0.009248466
22	0xbe20fd6a	-0.1572167
23	0x3ea56e00	0.32310486
24	0x3ea69d1f	0.3254175
25	0xbd55e446	-0.05221965
26	0xbc9da887	-0.0192454
27	0xbe2fdf37	-0.17174993
28	0xbeab21b7	-0.3342416
29	0x3d9f375c	0.07774231
30	0x3d995d95	0.074885525
31	0x3dbffc9a	0.09374352

fc.bias f4 [2]
0	0x3d2db68d	0.042410422
1	0xbc4b74e9	-0.01241801
